model/u4_p2/model_best.tar (torch, 3223 bytes, 6 tensors)

fc0.weight f4 [4, 16]
-4.975907 2.014375 5.4220843 4.039702 3.1572711 5.6546736 -0.02914813 5.5173545
5.2676253 6.928603 6.2207465 6.5939636 -5.15575 -1.1865655 0.033103604 -0.50545603
0.08739153 -0.0005587719 0.004411912 -0.2908637 -0.0045692166 0.06703697 0.00023282904 -0.0045438274
-0.005042781 0.0005543135 -0.08461268 -0.078030005 0.08187806 0.000104536804 -0.0046076085 0.34129497
0.11917091 -0.005977707 -0.00027039414 -0.0017103783 0.06917188 -0.0006987625 -0.068757415 0.007847159
0.0035071 0.0006669493 -0.001141792 -0.069805905 -0.024576912 0.057040837 -0.0036212956 0.41237456
6.581074 6.5626755 5.5524917 3.959395 4.3861313 5.208078 6.99025 3.6691313
3.779389 -4.1419077 4.2350574 -0.12405463 7.0589967 6.9925227 6.8707995 5.8040075
00000000: a13a 9fc0 85eb 0040 b781 ad40 3d45 8140
00000010: bb10 4a40 16f3 b440 0fc8 eebc 2b8e b040
00000020: 6390 a840 1eb7 dd40 5b10 c740 c001 d340
00000030: e7fb a4c0 61e1 97bf a597 073d 9165 01bf
00000040: 55fa b23d 8c7a 12ba cd91 903b 16ec 94be
00000050: 5eb9 95bb ae4a 893d 9223 7439 63e4 94bb
00000060: ea3d a5bb 594f 113a 6a49 adbd 32ce 9fbd
00000070: afaf a73d c53a db38 6cfb 96bb 37be ae3e
00000080: e10f f43d a4e0 c3bb b0c3 8db9 c62e e0ba
00000090: fda9 8d3d 282d 37ba b0d0 8cbd 5f91 003c
000000a0: 60d7 653b 36d6 2e3a 2fa8 95ba 66f6 8ebd
000000b0: 8555 c9bc a7a3 693d 4253 6dbb c222 d33e
000000c0: 2998 d240 7001 d240 03ae b140 ba66 7d40
000000d0: 305b 8c40 93a8 a640 21b0 df40 0cd3 6a40
000000e0: 82e1 7140 828a 84c0 9785 8740 5b10 febd
000000f0: 4de3 e140 bfc2 df40 97dd db40 6eba b940

fc1.weight f4 [2, 4]
-6.6118383 -6.464198 -6.421637 6.3699493 2.59213 -6.9832435 -6.9167743 -6.816267
00000000: 2e94 d3c0 b6da cec0 0d7e cdc0 a0d6 cb40
00000010: 75e5 2540 bb76 dfc0 3756 ddc0 dc1e dac0

exp_avg f4 [4, 16]
0.00052416587 -0.0007772692 -0.0038685368 -0.00047909262 -0.00044356257 -0.0071791443 -0.00019912771 -0.0015462856
-0.0012930479 -0.015654685 -0.01142094 -0.0038297495 0.0010028314 0.0005973896 3.9269806e-05 0.00013009421
1.278642e-05 1.4464698e-05 -2.0410183e-05 8.2242e-07 3.1051088e-05 2.5748428e-05 -2.9129724e-05 -1.734291e-06
-1.2629853e-05 -6.746698e-05 -0.0001388684 4.1138697e-05 -2.0676123e-05 -1.5968979e-05 -4.107379e-05 1.3666185e-05
1.5661673e-05 0.0002172135 0.00027861047 2.3717792e-05 4.4033965e-05 0.0004973437 0.0006229225 6.100492e-05
3.3301247e-05 0.00039261655 0.0006760068 7.5338685e-05 5.4481232e-05 0.00040742024 0.00036041392 3.4093242e-05
-0.0011301724 -0.00597328 -0.0038639184 -0.00027288048 -0.00070066913 -0.005203611 -0.016638944 -0.0008549486
-0.00069410703 0.0040452518 -0.0061044823 9.784327e-05 -0.0031269316 -0.010281742 -0.008204754 -0.0009403661
00000000: 2d68 093a a7c1 4bba 4787 7dbb b92e fbb9
00000010: f68d e8b9 073f ebbb f0cc 50b9 bcac caba
00000020: 7d7b a9ba 413e 80bc e51e 3bbc 89fc 7abb
00000030: 7071 833a 239a 1c3a a2b5 2438 e669 0839
00000040: 4185 5637 68ad 7237 8936 abb7 46c4 5c35
00000050: da3c 0238 54fe d737 9b5b f4b7 c9c5 e8b5
00000060: cee4 53b7 0f7d 8db8 349d 11b9 578c 2c38
00000070: a371 adb7 1ff5 85b7 a546 2cb8 d147 6537
00000080: 3061 8337 cec3 6339 7712 9239 92f5 c637
00000090: 1cb1 3838 2c60 023a 9f4b 233a 89df 7f38
000000a0: f1ac 0b38 1ad8 cd39 0c36 313a 26ff 9d38
000000b0: c782 6438 059b d539 f0f5 bc39 57ff 0e38
000000c0: 4b22 94ba 81bb c3bb cb39 7dbb 6611 8fb9
000000d0: 1cad 37ba 0e83 aabb 654e 88bc a11e 60ba
000000e0: bcf4 35ba 088e 843b 1c08 c8bb 3531 cd38
000000f0: 35ed 4cbb c074 28bc 3c6d 06bc e782 76ba

exp_avg_sq f4 [4, 16]
2.4146567e-07 5.1339225e-06 1.3139198e-05 2.616858e-07 6.011709e-07 4.3783217e-05 2.5220994e-05 2.3288528e-06
1.683798e-06 0.0001681795 0.000107862405 1.1139495e-05 1.2386445e-06 8.583432e-06 6.5838185e-06 1.554664e-07
8.612559e-09 7.2104734e-07 9.994433e-07 1.3996162e-08 2.747212e-08 2.3586342e-06 4.753782e-06 1.0058515e-07
7.741851e-08 2.0613766e-06 4.6515584e-06 2.1902844e-07 9.221339e-08 1.6276271e-06 1.0751112e-06 1.1359809e-08
9.041315e-09 7.8631484e-07 9.741933e-07 1.19794334e-08 3.235944e-08 2.6187843e-06 4.419703e-06 1.031771e-07
7.683215e-08 2.4437522e-06 5.1498114e-06 2.70286e-07 7.4968156e-08 1.486547e-06 1.0887434e-06 1.2557518e-08
9.4958733e-07 2.5438863e-05 1.7718905e-05 3.7255106e-07 9.892506e-07 3.8462735e-05 0.00019564213 1.5899853e-06
1.4325005e-06 3.335494e-05 5.7865705e-05 2.8967524e-06 6.7803453e-06 7.4547745e-05 4.5435925e-05 6.639284e-07
00000000: caa2 8134 0f44 ac36 6d70 5c37 d37d 8c34
00000010: 2660 2135 dfa3 3738 ac91 d337 6349 1c36
00000020: dcfe e135 5759 3039 3034 e238 c4e3 3a37
00000030: 803f a635 8f01 1037 92ea dc36 47ee 2634
00000040: 6ff6 1332 ff8d 4135 9c24 8635 c573 7032
00000050: d5fb eb32 0749 1e36 ad82 9f36 4501 d833
00000060: 4741 a633 2e56 0a36 9514 9c36 142e 6b34
00000070: d906 c633 d774 da35 8a4c 9035 f828 4332
00000080: 2054 1b32 2513 5335 07c1 8235 1bce 4d32
00000090: 95fb 0a33 5fbe 2f36 f64c 9436 3692 dd33
000000a0: ecfe a433 58ff 2336 8bcc ac36 d31b 9134
000000b0: 2efe a033 5e85 c735 f020 9235 8cbc 5732
000000c0: 25e7 7e35 8b65 d537 0fa3 9437 0703 c834
000000d0: 64c6 8435 0c53 2138 4925 4d39 7b67 d535
000000e0: 5844 c035 98e6 0b38 d4b4 7238 d465 4236
000000f0: b982 e336 8456 9c38 7492 3e38 d038 3235

exp_avg f4 [2, 4]
0.015102666 0.014515983 0.014191279 -0.021931471 -0.007194135 0.014934327 0.014609624 0.014022943
00000000: 2c71 773c 72d4 6d3c 8a82 683c a1a9 b3bc
00000010: c7bc ebbb 1caf 743c 345d 6f3c 7cc0 653c

exp_avg_sq f4 [2, 4]
0.00015956066 0.00016482176 0.00016266934 0.00043382024 0.00018050452 0.00016234013 0.00016320679 0.00015293271
00000000: bd4f 2739 01d4 2c39 3892 2a39 5e72 e339
00000010: d045 3d39 d939 2a39 7d22 2b39 905c 2039
