model/v16_u2/model_best.tar (torch, 3159 bytes, 3 tensors)

fc1.weight f4 [2, 16]
0	0xc134159b	-11.255275
1	0xc13509d2	-11.314898
2	0x40f5c6bc	7.6805096
3	0xc0d8d312	-6.7757654
4	0x4158fed7	13.562217
5	0xc14adc31	-12.678758
6	0xc160c9b2	-14.049242
7	0xc13c08b2	-11.752123
8	0xc188e502	-17.11182
9	0x417f7625	15.966344
10	0x41618cf6	14.096914
11	0x416d9477	14.848746
12	0xbfc39120	-1.5278664
13	0xc120a73c	-10.040829
14	0x4032b08c	2.7920256
15	0xc13bf1ca	-11.746531
16	0x4122193e	10.131163
17	0x40d46b18	6.638073
18	0xc12eb1a6	-10.918371
19	0x414eb9e0	12.92038
20	0x41808cc1	16.068727
21	0x40e0f71a	7.030164
22	0xc179454d	-15.579419
23	0x4125bd77	10.358756
24	0xc187ff91	-16.999788
25	0x417b94ff	15.723876
26	0x414c4d57	12.768882
27	0x416aea74	14.68224
28	0x4163cf10	14.238052
29	0x410021cb	8.00825
30	0xc13d932b	-11.84843
31	0x411960e5	9.586156

exp_avg f4 [2, 16]
0	0x3c04cf49	0.008106061
1	0x3bea5099	0.0071507213
2	0xbbb2207f	-0.0054360027
3	0x3b177aa5	0.0023113873
4	0xbbe62e87	-0.0070245895
5	0x3c7825a4	0.015145693
6	0x3c0245dd	0.007951227
7	0x3c3523f5	0.011055936
8	0x3c31c240	0.010849535
9	0xbc4fa9b5	-0.012674739
10	0xbc534b91	-0.012896434
11	0xbc85c6f5	-0.016330222
12	0x3b57ba6a	0.0032917508
13	0x3c077fd7	0.0082702255
14	0xbb24cdd3	-0.0025147095
15	0x3c10b389	0.008831867
16	0xbba25e2e	-0.0049550747
17	0xbb1fe5ec	-0.0024398519
18	0x3bc2aad4	0.0059407745
19	0xbc00293b	-0.00782233
20	0xbc45a288	-0.012062676
21	0xbb2196fa	-0.002465664
22	0x3c7c51d8	0.015400372
23	0xbb881c08	-0.004153732
24	0x3c1f9fd9	0.0097427005
25	0xbc12d593	-0.008962053
26	0xbbdf558a	-0.006815617
27	0xbc1c41a7	-0.009537137
28	0xbc2b5da4	-0.010459337
29	0xbb790b77	-0.0038001218
30	0x3c428bfd	0.011874196
31	0xbb8a578b	-0.0042218617

exp_avg_sq f4 [2, 16]
0	0x38b12f7c	8.448862e-05
1	0x38938362	7.033978e-05
2	0x384d8119	4.899604e-05
3	0x3809e37d	3.287521e-05
4	0x386363af	5.4213855e-05
5	0x394524b8	0.00018801063
6	0x38887964	6.507596e-05
7	0x38e395c6	0.00010852101
8	0x38b200c6	8.4878455e-05
9	0x38fa2f08	0.00011929689
10	0x390a7542	0.00013204388
11	0x39511719	0.00019940398
12	0x384325fd	4.6527002e-05
13	0x38be245a	9.066677e-05
14	0x3883501f	6.2614905e-05
15	0x38ad1e66	8.254945e-05
16	0x3888d568	6.524735e-05
17	0x380d25b0	3.365212e-05
18	0x38a4a6bf	7.851188e-05
19	0x389f08c6	7.583345e-05
20	0x38e684f1	0.00010992017
21	0x38af9c3b	8.3737505e-05
22	0x3951c73e	0.00020006017
23	0x38a1c347	7.7134515e-05
24	0x388937d0	6.543065e-05
25	0x3880b07e	6.13639e-05
26	0x381a22c4	3.674884e-05
27	0x389df0d8	7.531204e-05
28	0x391ff7ae	0.0001525569
29	0x388303ff	6.247311e-05
30	0x395a62de	0.00020826931
31	0x388c2888	6.68327e-05
