model/u2_p2/model_best.tar (torch, 2839 bytes, 6 tensors)

fc0.weight f4 [2, 16]
0	0x40295385	2.6457226
1	0x40215a69	2.5211432
2	0x3fff4385	1.994248
3	0x3fa8cd18	1.318759
4	0x3fb37849	1.4021083
5	0x3fc42a92	1.5325491
6	0x402b0f4c	2.6728086
7	0x3f67480c	0.9034431
8	0x3f5eb637	0.8699679
9	0xc00e3ef1	-2.2225916
10	0x3fb10b07	1.383149
11	0xbf735946	-0.95058095
12	0x402ea2ca	2.7286859
13	0x4030bb5c	2.7614355
14	0x401608d0	2.3442879
15	0x400c2098	2.1894894
16	0x40334689	2.8011801
17	0x4030df45	2.7636273
18	0x3febfc26	1.8436325
19	0x3f664db8	0.8996234
20	0x3fbc77d3	1.4724067
21	0x3fc0d2ec	1.5064368
22	0x4045b6cd	3.0892823
23	0x3ee31f7e	0.44359964
24	0x3f461c98	0.7738738
25	0xc00e0d00	-2.2195435
26	0x3f296690	0.6617212
27	0xbf7144d5	-0.94245654
28	0x40557ee2	3.3358693
29	0x40480ab4	3.1256533
30	0x4041c561	3.027672
31	0x400c3707	2.1908586

fc1.weight f4 [2, 2]
0	0xc032bc4a	-2.7927423
1	0x4038c0da	2.8867707
2	0xc04d1643	-3.2044837
3	0xc04b60f9	-3.1777937

exp_avg f4 [2, 16]
0	0xba937f5d	-0.0011253167
1	0xbbc7270e	-0.0060776537
2	0xbb4b7516	-0.003104513
3	0xb8186740	-3.6335783e-05
4	0xba28bd6b	-0.0006436917
5	0xbbaf0c47	-0.0053420397
6	0xbc8d4b07	-0.01724769
7	0xb7bde989	-2.2639304e-05
8	0xb976d745	-0.00023540582
9	0x3bd21272	0.0064108903
10	0xbb932775	-0.0044907876
11	0x3a9099a3	0.0011032115
12	0xbb2fabd8	-0.0026805308
13	0xbc2ce160	-0.01055178
14	0xbc030a97	-0.00799813
15	0xba48b253	-0.0007655967
16	0xba937f5d	-0.0011253167
17	0xbbc7270e	-0.0060776537
18	0xbb4b7516	-0.003104513
19	0xb8186740	-3.6335783e-05
20	0xba28bd6b	-0.0006436917
21	0xbbaf0c47	-0.0053420397
22	0xbc8d4b07	-0.01724769
23	0xb7bde989	-2.2639304e-05
24	0xb976d745	-0.00023540582
25	0x3bd21272	0.0064108903
26	0xbb932775	-0.0044907876
27	0x3a9099a3	0.0011032115
28	0xbb2fabd8	-0.0026805308
29	0xbc2ce160	-0.01055178
30	0xbc030a97	-0.00799813
31	0xba48b253	-0.0007655967

exp_avg_sq f4 [2, 16]
0	0x351a1c7e	5.741093e-07
1	0x3794c856	1.7736264e-05
2	0x37702e8d	1.4315953e-05
3	0x34998d4e	2.8601283e-07
4	0x35218c6e	6.0181526e-07
5	0x3802b857	3.1166095e-05
6	0x391921a4	0.00014603749
7	0x35964399	1.1195544e-06
8	0x3588d021	1.0193363e-06
9	0x381987da	3.6604564e-05
10	0x3861692e	5.3742137e-05
11	0x363f1217	2.8471748e-06
12	0x368f478f	4.2700626e-06
13	0x385e7c3f	5.3044638e-05
14	0x38076bbd	3.2286847e-05
15	0x34dd66ab	4.1239159e-07
16	0x35020b08	4.8444826e-07
17	0x374baf02	1.214049e-05
18	0x370f4388	8.539188e-06
19	0x347603d6	2.2911931e-07
20	0x3515e685	5.5842276e-07
21	0x37b3be8c	2.1427193e-05
22	0x38d46de7	0.00010129419
23	0x35791c89	9.280125e-07
24	0x356967e0	8.695042e-07
25	0x381861eb	3.6330817e-05
26	0x381935da	3.6528196e-05
27	0x363c0892	2.8019172e-06
28	0x3649bdd5	3.006183e-06
29	0x3817343e	3.604986e-05
30	0x37b8c73a	2.2027281e-05
31	0x34b9aadc	3.4583252e-07

exp_avg f4 [2, 2]
0	0x3cc80a66	0.02441902
1	0xbcc80a66	-0.02441902
2	0x3cc80a66	0.02441902
3	0x3cc80a66	0.02441902

exp_avg_sq f4 [2, 2]
0	0x3990ccc5	0.00027618386
1	0x3990ccc5	0.00027618386
2	0x3990ccc6	0.00027618388
3	0x3990ccc6	0.00027618388
