model/u4_v2/model_best.tar (torch, 3543 bytes, 3 tensors)

fc0.weight f4 [4, 16]
000000 3b bb 1b 40 4b fd 47 3d d1 6b a2 bf 95 e6 2b bf
       2.4333026 0.048825543 -1.2689153 -0.67148715
000010 aa ff 68 bf 62 25 ae bf d1 65 cb 3f 4a 15 cc bf
       -0.9101511 -1.3605158 1.5890447 -1.5943997
000020 54 85 84 bf 94 f7 30 c0 63 dc e0 bf ea e4 fb bf
       -1.0353189 -2.765111 -1.7567257 -1.9679234
000030 52 41 7e 40 b7 95 c1 3f c0 4a f5 3e c9 b0 09 3f
       3.9727368 1.5123814 0.47908592 0.5378538
000040 7d 4b 56 3f 22 0c 66 3e db 39 94 ba a6 5e 06 bb
       0.83708936 0.22465566 -0.0011308746 -0.0020503192
000050 89 ab d7 3e 9c d2 b6 3e 45 7a 3f 3f d9 b6 80 be
       0.42123058 0.35707557 0.74795943 -0.25139502
000060 02 f0 2e bd ec 8b b2 be 3e a4 82 ba 3c e0 b6 bd
       -0.042709358 -0.34872377 -0.0009967161 -0.08929488
000070 a0 6e 96 3d 7b d0 d2 3e b2 ba 1d 3f 11 32 fe 3e
       0.07345319 0.41174683 0.61613 0.49647573
000080 ba 4c ce c0 de a6 ab c0 5f 18 c3 bf c2 b3 ca 3a
       -6.446866 -5.3641195 -1.5241812 0.0015464949
000090 20 42 26 c0 72 58 56 bf 13 7c b7 c0 2d d6 2a bc
       -2.597786 -0.83728707 -5.733896 -0.01042704
0000a0 ac 9f 3e be 6e 30 a0 40 4e 2e 85 3b bb d8 28 40
       -0.18615597 5.005912 0.004064358 2.6382282
0000b0 00 aa f0 c0 c7 72 cd c0 27 e9 a9 c0 84 47 9a c0
       -7.520752 -6.420261 -5.309711 -4.82123
0000c0 ff 98 eb 40 1a 84 a6 40 fc ca f9 3f 72 dc b8 3e
       7.3624263 5.2036257 1.9515071 0.36105686
0000d0 40 eb 19 40 a8 62 6c 3f 28 cb c0 40 2d 81 69 3c
       2.4049835 0.9233804 6.0247993 0.014251989
0000e0 21 da bc 3e cd 3e 9f c0 45 99 b5 bb 34 97 3b c0
       0.3688517 -4.976416 -0.005541953 -2.9311037
0000f0 05 72 f9 40 32 c4 d8 40 30 7c bb 40 df 43 a7 40
       7.7951684 6.7739496 5.8589096 5.227035

exp_avg f4 [4, 16]
000000 c2 63 fe b6 93 65 d0 38 a9 63 8c 39 11 65 05 38
       -7.581403e-06 9.9371326e-05 0.00026777133 3.1803796e-05
000010 ce 75 a6 37 d6 2e e8 39 39 87 ae 38 4d 46 19 38
       1.98436e-05 0.00044285384 8.322154e-05 3.6543515e-05
000020 35 74 ed 37 f1 5b 71 3a 16 4c 40 3a 93 ff 2d 39
       2.8306715e-05 0.0009207121 0.00073355564 0.00016593774
000030 14 95 ae b8 4b bc 6a 38 60 3a eb 38 9a 01 c8 b5
       -8.3247345e-05 5.596531e-05 0.000112165464 -1.4901627e-06
000040 88 07 b6 b7 b7 f4 0d b9 df 0e d7 b7 e7 28 8d 37
       -2.1699598e-05 -0.00013537971 -2.5636922e-05 1.6827556e-05
000050 19 85 08 b8 7b 53 fb b8 d1 20 60 b9 b0 4c 86 b7
       -3.2548884e-05 -0.00011984162 -0.0002137453 -1.6009755e-05
000060 02 6d 17 b8 15 e3 ad 38 91 0b f8 b8 ee 1a 59 b8
       -3.6102727e-05 8.29158e-05 -0.00011827716 -5.1761912e-05
000070 e8 b9 d5 b7 ca 4f f5 b8 d8 fc 0a b9 39 c7 94 b7
       -2.5478148e-05 -0.00011697372 -0.00013254897 -1.7735745e-05
000080 fd 21 99 3a 08 4f ad 3b e5 14 1a 3a 0a dc 93 b8
       0.0011683103 0.0052889623 0.00058777473 -7.050492e-05
000090 c7 f5 15 3a 4f 3f c3 38 db 9f 75 3c 2e e5 05 3a
       0.00057205226 9.310117e-05 0.014991726 0.0005107698
0000a0 7d 1d cb 39 2d ae 67 bc 79 48 e6 ba 99 82 f9 ba
       0.00038741148 -0.014140648 -0.0017569206 -0.0019036114
0000b0 cc f3 73 3b 54 65 1d 3c 72 24 d1 3b af 70 34 3a
       0.0037224172 0.009606678 0.0063825184 0.0006883246
0000c0 a3 90 9d ba 41 02 c6 bb ac c1 03 bb 2d 7a a9 b7
       -0.0012021255 -0.006042749 -0.002010445 -2.0203262e-05
0000d0 66 34 23 ba b3 89 f8 ba 89 d2 8e bc 85 26 41 ba
       -0.00062257645 -0.0018961936 -0.017434375 -0.00073681056
0000e0 b6 40 1c ba 77 21 45 3c 3d 99 73 ba 85 18 c1 3a
       -0.00059605704 0.012031904 -0.00092925486 0.0014732039
0000f0 11 0a 84 bb 3a a7 32 bc d1 3c f2 bb ae b6 52 ba
       -0.0040295203 -0.010904128 -0.007392504 -0.00080380857

exp_avg_sq f4 [4, 16]
000000 8d ee 99 31 00 29 b0 34 05 36 37 35 5e 91 36 32
       4.480006e-09 3.2812386e-07 6.825142e-07 1.0626847e-08
000010 3f cd d7 32 e1 fa 07 36 f5 c9 d3 35 45 57 ac 33
       2.512263e-08 2.0262598e-06 1.5779502e-06 8.0252484e-08
000020 f4 92 89 33 49 41 9c 36 6c 78 96 36 9f d0 b9 34
       6.40629e-08 4.6567625e-06 4.4843673e-06 3.4610727e-07
000030 2a 35 db 32 22 70 fa 34 76 93 e8 34 e4 8e e1 31
       2.5519132e-08 4.6647716e-07 4.332066e-07 6.5646066e-09
000040 5b 07 85 31 14 dd 79 34 cc 27 c1 34 9c 42 93 31
       3.8716457e-09 2.327036e-07 3.5978007e-07 4.2858357e-09
000050 24 0b 3d 32 9e 55 8c 35 f6 a2 b4 35 d8 ed e2 32
       1.1003781e-08 1.0455731e-06 1.3458473e-06 2.6418022e-08
000060 9b ce a4 32 13 fc d6 35 bc b6 0f 36 e6 92 00 34
       1.9186066e-08 1.6017606e-06 2.1415026e-06 1.197437e-07
000070 73 db 79 32 95 78 e1 34 f1 23 c3 34 56 85 97 31
       1.45436045e-08 4.199725e-07 3.634773e-07 4.409837e-09
000080 79 c7 97 35 25 b5 1d 38 4d be 1d 38 fe 4c 56 35
       1.1308431e-06 3.760042e-05 3.760895e-05 7.983325e-07
000090 b8 f6 db 35 58 71 d8 38 09 97 86 39 ce 14 8d 36
       1.6388576e-06 0.000103207945 0.00025671002 4.2045494e-06
0000a0 5e 06 5b 36 2e 37 5f 39 c9 93 62 39 6a 84 70 37
       3.263725e-06 0.00021287493 0.00021608094 1.4335945e-05
0000b0 34 16 02 37 de a6 ba 38 c3 09 71 38 8f 7c 55 35
       7.753773e-06 8.9002526e-05 5.746797e-05 7.952994e-07
0000c0 41 e0 95 35 3f 19 18 38 a3 56 1e 38 6a c4 4d 35
       1.1166632e-06 3.6263136e-05 3.7750822e-05 7.665427e-07
0000d0 a4 40 da 35 d5 63 db 38 c5 45 84 39 4f 2f 91 36
       1.6261079e-06 0.00010461329 0.00025228984 4.326844e-06
0000e0 ac 49 60 36 8b c0 72 39 99 01 66 39 92 a6 81 37
       3.3421484e-06 0.00023150646 0.00021935104 1.5455564e-05
0000f0 16 6b 07 37 51 80 b9 38 f4 8a 6d 38 6c df 52 35
       8.07156e-06 8.845388e-05 5.6634613e-05 7.855622e-07
