model/u2_p2_n2/model_best.tar (torch, 4734 bytes, 13 tensors)

fc0.weight f4 [2, 16]
0	0x4060abdb	3.5104892
1	0x4077b5b5	3.8704655
2	0x40533c2f	3.3005483
3	0x3ff17225	1.8862959
4	0x400eca97	2.231115
5	0x40306400	2.7561035
6	0x408272f1	4.076531
7	0x3fd2591c	1.6433444
8	0x3fc01cc3	1.5008777
9	0xc08e8fbd	-4.455046
10	0x3ffd2d90	1.977953
11	0xc032cde7	-2.7938173
12	0x40808252	4.0159082
13	0x408aa543	4.3326735
14	0x40780b21	3.8756793
15	0x4062f89b	3.5464237
16	0xc0812593	-4.0358367
17	0xc088b4ce	-4.272071
18	0xc025ef04	-2.5927134
19	0xbdfa34c1	-0.12217093
20	0xc014139d	-2.313697
21	0xc0264d63	-2.5984733
22	0xc08e6fb4	-4.4511356
23	0xbcf89949	-0.03034653
24	0xbf38c2d4	-0.72172284
25	0x408d958d	4.4245057
26	0xbc93e822	-0.018055025
27	0x4037cb9c	2.8718023
28	0xc082b460	-4.0845184
29	0xc084d18f	-4.150581
30	0xc0876b83	-4.231874
31	0xc05c2e6a	-3.440333

fc1.weight f4 [2, 2]
0	0x409f7038	4.9824486
1	0xc098a29c	-4.76985
2	0xc09b9e47	-4.863071
3	0xc09dd950	-4.9327774

fc2.inv.x_running_rot f4 [2]
0	0x3f783f95	0.9697202
1	0x3f783f95	0.9697202

fc2.inv.ang_inc f4 [2]
0	0xbd8d8383	-0.069098495
1	0xbd868fda	-0.06570406

fc2.batch.x_running_rot f4 [2]
0	0x3e8afb7e	0.27144998
1	0x3f3a8240	0.72854996

fc2.batch.x_l_0_5 f4 [2]
0	0x3f800000	1.0
1	0x00000000	0.0

fc2.batch.x_g_0_5 f4 [2]
0	0x00000000	0.0
1	0x3f800000	1.0

exp_avg f4 [2, 16]
0	0xba463d3d	-0.0007562226
1	0xbb5bf776	-0.0033564246
2	0xbabaa8df	-0.0014241001
3	0xb8246e2a	-3.9203245e-05
4	0xb9a615f6	-0.0003167835
5	0xbad47853	-0.0016210176
6	0xbc2c1915	-0.010504027
7	0x39777901	0.00023600833
8	0x38c40907	9.34769e-05
9	0x3be969ee	0.0071232235
10	0xb98fea45	-0.0002744963
11	0x3adbcef0	0.0016770046
12	0xbb0406d7	-0.0020145678
13	0xbbd22bca	-0.0064139115
14	0xbb9aa53b	-0.004719404
15	0xb9dd4084	-0.00042200473
16	0x3a282f61	0.00064157514
17	0x3b30c428	0.0026972387
18	0x3a79dbed	0.00095313677
19	0xb816fc0d	-3.5997527e-05
20	0x398af9af	0.0002650744
21	0x3a7ba6fc	0.0009599773
22	0x3c0cf842	0.008604111
23	0xb98ce194	-0.0002687095
24	0xb9285f57	-0.00016057245
25	0xbbd5b1d1	-0.0065214415
26	0xb9754240	-0.00023389701
27	0xbac837e1	-0.0015275442
28	0x3adf468b	0.0017034573
29	0x3baf3699	0.0053470847
30	0x3b7812d8	0.0037853029
31	0x39b63a68	0.0003475726

exp_avg_sq f4 [2, 16]
0	0x345c4d0b	2.0517125e-07
1	0x367a0ad1	3.72592e-06
2	0x35f893cb	1.8520453e-06
3	0x33db5e5c	1.0215146e-07
4	0x34328a00	1.6627746e-07
5	0x3607156f	2.0129044e-06
6	0x381ce6f3	3.7408387e-05
7	0x34bbd6d7	3.498778e-07
8	0x349931cc	2.8534703e-07
9	0x37413622	1.15163e-05
10	0x360a7626	2.0632374e-06
11	0x35516978	7.8012044e-07
12	0x35f139a1	1.7972671e-06
13	0x37758a16	1.4635289e-05
14	0x36eedc65	7.11861e-06
15	0x34003c9d	1.194298e-07
16	0x3415c283	1.394747e-07
17	0x360d29c8	2.1034957e-06
18	0x3518aa05	5.6871824e-07
19	0x33256bd0	3.851511e-08
20	0x33ddef17	1.03346046e-07
21	0x3553ee6f	7.895059e-07
22	0x37969784	1.7951948e-05
23	0x33c6763b	9.2415995e-08
24	0x33c86ef6	9.3334094e-08
25	0x37321df5	1.0616602e-05
26	0x356a9487	8.738793e-07
27	0x35062ad8	4.9981236e-07
28	0x354e7727	7.691437e-07
29	0x36f0aadf	7.1724494e-06
30	0x36822dcb	3.879633e-06
31	0x33a9a152	7.89902e-08

exp_avg f4 [2, 2]
0	0xbcbbfb12	-0.022946868
1	0x3cbbfb12	0.022946868
2	0x3cbbf910	0.02294591
3	0x3cbbf910	0.02294591

exp_avg_sq f4 [2, 2]
0	0x39062876	0.00012794309
1	0x39062875	0.00012794307
2	0x390073e3	0.00012250202
3	0x390073e3	0.00012250202

exp_avg f4 [2]
0	0x2a81f0a1	2.3081973e-13
1	0x2c807d14	3.6518653e-12

exp_avg_sq f4 [2]
0	0x389fab9c	7.6136756e-05
1	0x38e02f13	0.000106899206
